dqn_model.pth (torch, 42844 bytes, 6 tensors)

fc1.weight f4 [64, 9]
000000 4e d1 be 42 b3 82 d1 42 29 0e 90 42 bf 0c bb 42
       95.4088 104.75527 72.02766 93.524895
000010 90 15 3b 42 85 a4 c8 42 4c 1c d5 42 72 cb ba 42
       46.771057 100.32133 106.55527 93.397354
000020 84 20 c1 42 38 c2 bf 42 bc a3 d2 42 c1 8a 91 42
       96.56351 95.87933 105.31979 72.771
000030 bd b7 bb 42 45 cf 3d 42 18 7e c9 42 be bb d7 42
       93.858864 47.45241 100.74628 107.866684
000040 1c 93 bb 42 55 f2 c2 42 b3 39 73 40 c1 41 53 c0
       93.78732 97.473305 3.8003967 -3.3008883
000050 e7 87 2a c0 71 67 a4 c0 5e 78 57 40 df c7 27 40
       -2.6645448 -5.137627 3.3667216 2.6215742
000060 36 51 8d c0 94 df 35 c0 22 f5 a0 c0 42 a9 bf 42
       -4.4161634 -2.8417711 -5.0299234 95.83058
000070 2a f8 d2 42 da 12 91 42 cc 3e bb 42 6e 98 3e 42
       105.484695 72.53682 93.62265 47.648857
000080 f2 b5 c8 42 d5 4c d7 42 8e 3c bc 42 06 bb c1 42
       100.35536 107.65006 94.11827 96.86528
000090 ac 5e c0 42 aa 9a d3 42 72 ab 91 42 04 ac ba 42
       96.184906 105.80208 72.834854 93.33597
0000a0 cf 08 3c 42 dd 4c c8 42 b0 7c d7 42 92 0d bb 42
       47.008602 100.15012 107.74353 93.526505
0000b0 5d 7f c2 42 cd d0 bf 42 93 ba d2 42 1b bc 90 42
       97.24876 95.907814 105.3644 72.36739
0000c0 e4 a0 bb 42 d3 c6 3c 42 3d 5d c8 42 87 51 d8 42
       93.81424 47.194164 100.182106 108.15923
0000d0 96 bc bb 42 0a ae c2 42 e7 e3 be 42 be 05 d3 42
       93.86833 97.33992 95.44512 105.511215
0000e0 1e 1d 91 42 cb 9d bb 42 e3 44 3b 42 01 ab c9 42
       72.55687 93.80819 46.817272 100.83399
0000f0 54 4d d7 42 82 57 bb 42 1a fa c1 42 16 c9 bf 42
       107.65103 93.67091 96.98848 95.892746
000100 0c d3 d3 42 4b e6 91 42 5e 5b bb 42 9a a2 3c 42
       105.9122 72.94979 93.67845 47.15879
000110 6e 03 c9 42 e0 4c d8 42 e5 1a bb 42 73 62 c2 42
       100.5067 108.15015 93.55253 97.19228
000120 0e cc be 42 89 cf d2 42 d6 03 91 42 2d ba bb 42
       95.398544 105.40534 72.50749 93.863625
000130 15 90 3e 42 37 75 c9 42 f3 1d d7 42 4e 67 bb 42
       47.640705 100.728935 107.558495 93.70177
000140 90 7b c2 42 6d 55 c0 42 77 d6 d3 42 bf 74 91 42
       97.24133 96.16685 105.91888 72.72802
000150 94 9e ba 42 8f 7c 3c 42 ee 7a c9 42 d0 20 d7 42
       93.30972 47.12164 100.7401 107.56409
000160 56 22 bc 42 43 b2 c2 42 09 5d c0 42 56 a7 d3 42
       94.06706 97.34817 96.18171 105.82683
000170 6c 9b 91 42 a5 87 bb 42 73 ec 3c 42 dc a8 c8 42
       72.80356 93.76493 47.230907 100.3298
000180 86 a5 d7 42 d8 1b bc 42 e2 d6 c1 42 78 d0 bf 42
       107.82329 94.05438 96.91969 95.907166
000190 1b c1 d3 42 0e 76 91 42 65 9d bb 42 1c d6 3c 42
       105.87716 72.730576 93.80741 47.20909
0001a0 92 c6 c8 42 dc 52 d8 42 5c ee bb 42 10 3a c2 42
       100.38783 108.161835 93.965546 97.1134
0001b0 c9 f1 63 42 4d 4b 78 42 93 35 31 42 ed bd 5f 42
       56.98612 62.073536 44.30232 55.935474
0001c0 d6 e4 e6 41 b9 21 6d 42 4a 63 7e 42 50 f6 5c 42
       28.861736 59.282932 63.596962 55.24054
0001d0 d0 a7 65 42 6c 7e bf 42 da 68 d3 42 fe 8e 91 42
       57.41388 95.74692 105.70479 72.77928
0001e0 25 83 bb 42 58 35 3d 42 9c 2d c8 42 39 16 d7 42
       93.75614 47.302094 100.08908 107.5434
0001f0 4e a2 bb 42 fc 18 c2 42 7c 6c c0 42 34 1f d3 42
       93.817 97.0488 96.21188 105.56094
000200 d6 9d 91 42 7f bc ba 42 9e 6f 3d 42 c2 9f c8 42
       72.80827 93.36816 47.359 100.31203
000210 91 40 d8 42 94 a5 bb 42 68 b2 c2 42 3d 31 c0 42
       108.12611 93.823395 97.34845 96.09617
000220 ca b3 d3 42 7b 06 91 42 03 b6 ba 42 57 48 3d 42
       105.85115 72.51266 93.35549 47.320644
000230 4b c9 c8 42 13 c8 d7 42 ca cf bb 42 8c 0d c2 42
       100.39315 107.89077 93.90584 97.02646
000240 d0 f9 be 42 5c a2 d3 42 ee 9f 90 42 9e c4 b9 42
       95.487915 105.81711 72.31236 92.88402
000250 84 cc 3d 42 bd e6 c7 42 1d 3e d7 42 47 a6 bb 42
       47.449722 99.95066 107.621315 93.82476
000260 3f 39 c2 42 d8 42 c0 42 46 14 d3 42 d4 1e 91 42
       97.11181 96.130554 105.5396 72.56021
000270 65 3c bb 42 d1 4e 3c 42 99 5b c9 42 14 cc d7 42
       93.61796 47.07697 100.6789 107.89859
000280 2d 3f bb 42 c2 74 c2 42 e7 2b bf 42 d9 a8 d2 42
       93.62339 97.22804 95.58575 105.32978
000290 8a 75 90 42 d5 bd bb 42 3c 5e 3d 42 f2 c0 c8 42
       72.22957 93.870766 47.342026 100.37685
0002a0 9d 22 d8 42 d8 c5 bb 42 26 ea c1 42 c3 a5 bf 42
       108.067604 93.88641 96.95732 95.82375
0002b0 aa 46 d3 42 b4 42 91 42 3e ba ba 42 f9 e0 3c 42
       105.638016 72.63028 93.363754 47.2197
0002c0 82 b3 c8 42 2a 62 d8 42 18 dd bb 42 51 65 c2 42
       100.3506 108.19173 93.93182 97.19788
0002d0 98 f0 bf 42 d0 c1 d2 42 a4 ac 90 42 ae 7c bb 42
       95.96991 105.37854 72.33719 93.743515
0002e0 1d 44 3d 42 2c 71 c8 42 26 06 d8 42 42 9d bb 42
       47.316517 100.22104 108.01201 93.807144
0002f0 ae ad c2 42 e6 eb bf 42 2c 37 d3 42 8c 8d 91 42
       97.33922 95.96074 105.60776 72.77646
000300 8b 67 ba 42 28 ec 3c 42 c5 3f c9 42 27 1d d8 42
       93.20223 47.23062 100.62455 108.05694
000310 2e 19 bb 42 78 dc c2 42 dc 7b c0 42 d1 98 d2 42
       93.54918 97.4306 96.24191 105.29847
000320 60 d6 90 42 27 8b bb 42 e1 1f 3e 42 7e d7 c8 42
       72.4187 93.77178 47.53113 100.42088
000330 e8 e9 d7 42 ce 24 bb 42 2a 8f c2 42 80 77 a6 bc
       107.95685 93.571884 97.27962 -0.020320654
000340 ea ff 3d 3e 90 4f a7 bd 54 76 a0 bd 8b ea 9a be
       0.18554655 -0.08169472 -0.07835069 -0.30257067
000350 38 54 7b be f3 6f 60 be 9c 95 93 be 3e 44 9b be
       -0.24543846 -0.21917705 -0.2882508 -0.30325502
000360 af 4f bf 42 ef 2b d3 42 97 37 91 42 90 33 bb 42
       95.65563 105.58581 72.608574 93.60071
000370 41 67 3e 42 1e 96 c8 42 7d b4 d7 42 47 1d bc 42
       47.600834 100.2932 107.852516 94.05718
000380 5c d1 c2 42 77 51 c0 42 93 e9 d2 42 8e af 91 42
       97.408905 96.15911 105.4562 72.84288
000390 07 a8 bb 42 ad 7f 3b 42 3b 63 c9 42 c3 f4 d7 42
       93.82818 46.874683 100.69381 107.97805
0003a0 96 fe ba 42 fb 5e c2 42 9b 08 d2 bd 05 28 19 3e
       93.49724 97.18551 -0.102555476 0.14956672
0003b0 bd 52 93 3c b0 07 35 be 11 50 00 be 7b 7e c7 3c
       0.017983789 -0.17678714 -0.12530543 0.024352303
0003c0 ef 6f 38 be 46 94 b6 be c7 db 43 3d 51 83 bf 42
       -0.1801145 -0.3566 0.047817018 95.75648
0003d0 99 b6 d2 42 76 f3 91 42 86 a7 ba 42 21 77 3d 42
       105.356636 72.97551 93.327194 47.366337
0003e0 0b 00 c9 42 1a ba d7 42 be 4c bb 42 dc db c2 42
       100.500084 107.86348 93.64989 97.42941
0003f0 1e 7f c0 42 03 d1 d2 42 37 68 91 42 a1 53 bb 42
       96.248276 105.408226 72.703545 93.66334

fc1.bias f4 [64]
000000 63 69 ce 42 da e1 cf 42 8c ab 83 3f c4 65 cf 42
       103.20583 103.94112 1.0286727 103.69876
000010 84 39 cf 42 1b a0 cf 42 01 dc ce 42 ac 3e cf 42
       103.612335 103.812706 103.429695 103.622406
000020 2c a9 ce 42 33 ce cf 42 3a d2 ce 42 5b c4 cf 42
       103.330414 103.90273 103.4106 103.88351
000030 fb 35 73 42 9a 71 cf 42 b3 88 cf 42 4a c8 cf 42
       60.802715 103.72188 103.76699 103.89119
000040 79 8b cf 42 da a8 cf 42 42 6f cf 42 49 90 cf 42
       103.77241 103.82979 103.7173 103.78181
000050 d6 4d cf 42 53 99 cf 42 64 c6 ce 42 84 bb 93 bd
       103.65202 103.79946 103.38748 -0.072135
000060 54 8e cf 42 11 cb ce 42 08 56 a8 be 84 97 cf 42
       103.777985 103.396614 -0.32878137 103.79593
000070 e5 6b cf 42 69 8b ce 42 2e 27 cf 42 fc 43 cf 42
       103.71073 103.272285 103.57652 103.63278
000080 5a c4 cf 42 22 f8 ce 42 96 5a cf 42 15 5c cf 42
       103.8835 103.484634 103.676926 103.67985
000090 70 9b ce 42 e8 d1 cf 42 d9 06 cf 42 7a 9a ce 42
       103.30359 103.90997 103.513374 103.30171
0000a0 d0 36 87 be d0 8b 7f be 43 b6 ce 42 05 af ce 42
       -0.26409006 -0.24955678 103.35598 103.341835
0000b0 df 65 cf 42 2c 91 cf 42 a7 c9 ce 42 5b 55 ce 42
       103.69897 103.78354 103.39385 103.16671
0000c0 ba 0d cf 42 02 16 cf 42 de d4 ce 42 4d 2e cf 42
       103.52681 103.542984 103.41576 103.59043
0000d0 02 4e ce 42 09 3e cf 42 0b 9c ce 42 24 70 cf 42
       103.15236 103.62116 103.30477 103.719025
0000e0 a0 41 cf 42 7b 9e ce 42 ab c8 cf 42 89 5c cf 42
       103.628174 103.30953 103.89193 103.68073
0000f0 46 a6 cf 42 f6 2e cf 42 0e d9 ce 42 b9 a5 cf 42
       103.82475 103.59172 103.423935 103.82368

fc2.weight f4 [64, 64]
000000 32 22 d3 42 8c 89 d2 42 31 70 5a c1 85 a6 d2 42
       105.56679 105.26865 -13.6523905 105.32523
000010 45 14 d3 42 57 d8 d2 42 6d f5 d2 42 2c cc d2 42
       105.53959 105.42254 105.47935 105.39877
000020 83 3b d2 42 17 05 d3 42 6d c4 d2 42 45 d2 d2 42
       105.116234 105.50994 105.383644 105.41068
000030 ec 4f 79 42 d0 a6 d2 42 96 fa d2 42 1f 01 d3 42
       62.32805 105.325806 105.489426 105.50219
000040 e0 d3 d2 42 10 b3 d2 42 1c e4 d2 42 25 fe d2 42
       105.41382 105.34973 105.445526 105.496376
000050 c1 86 d2 42 9b f2 d2 42 62 a9 d2 42 8e ba bb bd
       105.26319 105.47384 105.330826 -0.09166442
000060 bc ae d2 42 7d ec d2 42 d5 af ea bc c7 a0 d2 42
       105.34128 105.46189 -0.028648296 105.31402
000070 8d 71 d2 42 99 f0 d2 42 b0 b2 d2 42 76 e8 d2 42
       105.22178 105.46992 105.349 105.454025
000080 a0 28 d3 42 21 f6 d2 42 b2 c3 d2 42 09 c2 d2 42
       105.579346 105.48072 105.38222 105.378975
000090 1e d5 d2 42 61 6d d2 42 7f 9f d2 42 9b fc d2 42
       105.416245 105.21363 105.311516 105.49337
0000a0 f0 86 39 bc 90 82 51 3d d6 d1 d2 42 fc 40 d3 42
       -0.0113236755 0.051149905 105.409836 105.62692
0000b0 b7 e7 d2 42 f0 e0 d2 42 15 0d d3 42 cd 0d d3 42
       105.45257 105.43933 105.52555 105.526955
0000c0 e6 e8 d2 42 71 c0 d2 42 db f4 d2 42 af ec d2 42
       105.45488 105.37586 105.47823 105.46227
0000d0 cf b4 d2 42 c0 f4 d2 42 f7 86 d2 42 0b f3 d2 42
       105.35314 105.47803 105.2636 105.47469
0000e0 41 b7 d2 42 5c 17 d3 42 71 83 d2 42 10 79 d2 42
       105.35792 105.54562 105.25672 105.23645
0000f0 96 a9 d2 42 2f 00 d3 42 41 f6 d2 42 cd 4d d3 42
       105.33122 105.50036 105.480965 105.651955
000100 14 72 d3 42 a0 bb d2 42 53 f8 58 c1 79 d2 d2 42
       105.72281 105.366455 -13.560626 105.41108
000110 25 71 d2 42 57 c2 d2 42 65 07 d3 42 3e 86 d2 42
       105.220985 105.37957 105.51444 105.26219
000120 da d4 d2 42 d3 79 d2 42 b5 d5 d2 42 87 8e d2 42
       105.415726 105.23794 105.4174 105.27837
000130 20 60 79 42 0e e6 d2 42 d1 ca d2 42 af 8e d2 42
       62.343872 105.449326 105.396126 105.27868
000140 8e f4 d2 42 98 d4 d2 42 cb 3c d3 42 1b ac d2 42
       105.477646 105.41522 105.61874 105.33614
000150 36 a1 d2 42 61 8b d2 42 41 76 d2 42 b8 b2 dd 3c
       105.314865 105.272224 105.230965 0.027062759
000160 54 ce d2 42 06 d1 d2 42 3a f3 62 3d ae 85 d2 42
       105.402985 105.40825 0.05540774 105.26109
000170 6b 63 d2 42 02 cd d2 42 01 7c d2 42 c3 c3 d2 42
       105.194176 105.400406 105.242195 105.38235
000180 78 7d d2 42 3f 8a d2 42 df c6 d2 42 e7 ae d2 42
       105.245056 105.27001 105.38842 105.341606
000190 ff 65 d2 42 4e 5f d2 42 1b d5 d2 42 6d eb d2 42
       105.19921 105.18614 105.41622 105.459816
0001a0 24 bf 51 3d 02 88 2a bd d4 cc d2 42 2f 19 d3 42
       0.051207677 -0.041633613 105.400055 105.54919
0001b0 c8 0f d3 42 74 11 d3 42 b5 08 d3 42 06 31 d3 42
       105.53082 105.53409 105.517006 105.59575
0001c0 51 ba d2 42 59 0b d3 42 11 b9 d2 42 7c b7 d2 42
       105.3639 105.52216 105.36146 105.35837
0001d0 47 a6 d2 42 e3 c3 d2 42 86 9e d2 42 9e 57 d2 42
       105.32476 105.38259 105.309616 105.17113
0001e0 89 df d2 42 14 dc d2 42 b4 b7 d2 42 b3 d4 d2 42
       105.43659 105.42984 105.358795 105.41543
0001f0 35 d3 d2 42 64 62 d2 42 62 94 d2 42 89 c6 d2 42
       105.41251 105.19217 105.28981 105.387764
000200 01 50 d3 42 d3 f7 d2 42 c1 6e 57 c1 74 6c d2 42
       105.65626 105.48403 -13.46454 105.21182
000210 76 c0 d2 42 2d e1 d2 42 fa 61 d3 42 a3 0d d3 42
       105.3759 105.4398 105.69136 105.526634
000220 bb 91 d2 42 b4 c7 d2 42 38 b1 d2 42 5a b7 d2 42
       105.28463 105.390045 105.34613 105.35811
000230 11 0f 79 42 88 d2 d2 42 89 b3 d2 42 af 0e d3 42
       62.264713 105.411194 105.350655 105.52868
000240 6c 75 d2 42 34 0a d3 42 6c b0 d2 42 58 13 d3 42
       105.22934 105.51993 105.344574 105.53778
000250 19 c2 d2 42 8e e4 d2 42 85 d4 d2 42 38 44 c1 bc
       105.3791 105.446396 105.41508 -0.0235921
000260 e1 de d2 42 a2 09 d3 42 07 0e 9a bd b7 e2 d2 42
       105.43531 105.518814 -0.07522207 105.4428
000270 48 ed d2 42 3d f9 d2 42 05 f8 d2 42 c4 ab d2 42
       105.46344 105.48679 105.48441 105.33548
000280 af d8 d2 42 10 e7 d2 42 8b 03 d3 42 6e d9 d2 42
       105.42321 105.451294 105.50692 105.42467
000290 a7 2d d3 42 fa c9 d2 42 10 ac d2 42 5c e8 d2 42
       105.589165 105.394485 105.33606 105.45383
0002a0 ae 33 85 3d 46 f6 fd 3d 19 bb d2 42 f9 0d d3 42
       0.06503998 0.124004886 105.365425 105.52729
0002b0 5b dc d2 42 70 f6 d2 42 ab 24 d3 42 ca 5b d3 42
       105.43038 105.48132 105.57162 105.679276
0002c0 d3 84 d3 42 dd 06 d3 42 76 0f d3 42 4c ea d2 42
       105.75942 105.513405 105.5302 105.45761
0002d0 2d f6 d2 42 04 aa d2 42 84 be d2 42 7d ed d2 42
       105.48081 105.33206 105.3721 105.463844
0002e0 d3 a4 d2 42 41 0b d3 42 a9 a8 d2 42 d6 c2 d2 42
       105.32192 105.52198 105.329414 105.38054
0002f0 17 bc d2 42 af c3 d2 42 25 c6 d2 42 d4 21 d3 42
       105.36736 105.382195 105.387 105.56607
000300 5c d3 d2 42 0f 75 d2 42 7b 52 5e c1 b8 1d d2 42
       105.41281 105.22863 -13.895137 105.058044
000310 95 f6 d2 42 4e 05 d3 42 5b ca d2 42 b7 eb d2 42
       105.481606 105.51036 105.395226 105.46038
000320 2e d5 d1 42 c1 e2 d2 42 c1 c1 d2 42 d1 d6 d2 42
       104.91637 105.44288 105.378426 105.41956
000330 96 25 79 42 2e 72 d2 42 a3 ae d2 42 9e 0f d3 42
       62.286705 105.22301 105.34109 105.5305
000340 7e a3 d2 42 cc 06 d3 42 87 4e d2 42 e7 13 d3 42
       105.31932 105.513275 105.15337 105.53887
000350 ff e8 d2 42 ab f4 d2 42 a5 b8 d2 42 a0 10 8e 3d
       105.45507 105.47787 105.360634 0.06936765
000360 b0 a0 d2 42 b8 b3 d2 42 31 c2 48 3d 4f 61 d2 42
       105.31384 105.35101 0.04901332 105.190056
000370 ec ac d2 42 05 c6 d2 42 93 aa d2 42 eb af d2 42
       105.33774 105.38676 105.33315 105.34359
000380 4f cb d2 42 18 a4 d2 42 d6 28 d3 42 dc 62 d2 42
       105.39709 105.320496 105.57976 105.193085
000390 ee 15 d3 42 fe 87 d2 42 58 3c d2 42 e0 39 d3 42
       105.54283 105.26561 105.11786 105.61304
0003a0 ce 34 b8 3d b5 bd cb bd 57 5b d2 42 aa 7e d3 42
       0.08994447 -0.09948293 105.1784 105.74739
0003b0 bf f6 d2 42 f4 cc d2 42 54 47 d3 42 55 1d d3 42
       105.481926 105.4003 105.63931 105.55729
0003c0 9b b7 d2 42 6f ad d2 42 d4 ba d2 42 54 ba d2 42
       105.358604 105.33874 105.3649 105.36392
0003d0 85 c0 d2 42 d0 94 d2 42 89 f9 d2 42 b2 d9 d2 42
       105.376015 105.29065 105.48737 105.425186
0003e0 ea 3d d2 42 dc 09 d3 42 75 c9 d2 42 92 9a d2 42
       105.120926 105.51926 105.39347 105.301895
0003f0 56 8b d2 42 1c dc d2 42 6a a7 d2 42 17 30 d3 42
       105.27214 105.4299 105.32698 105.593925

fc2.bias f4 [64]
000000 79 7b ca 42 cb 32 ca 42 c0 a5 ca 42 cd 48 ca 42
       101.24116 101.099205 101.32373 101.14219
000010 ec 33 ca 42 52 0d e8 bd b1 8d ca 42 5e 00 df bd
       101.10141 -0.11330666 101.27674 -0.10888742
000020 ae 54 ca 42 b7 1b ca 42 68 aa 5b 3d b0 84 ca 42
       101.16539 101.05413 0.05362931 101.259155
000030 c2 6d ca 42 1c df 0c bd b8 63 ca 42 70 3f b4 bc
       101.21437 -0.03439246 101.19476 -0.022002906
000040 ae 75 ca 42 cb c3 9a 3d 13 80 ca 42 e4 b4 ca 42
       101.22984 0.07556876 101.250145 101.3533
000050 19 39 ca 42 69 41 ca 42 53 97 ca 42 86 25 86 3d
       101.11152 101.127754 101.295555 0.06550126
000060 a6 75 ca 42 1e 4a ca 42 da 3d ca 42 3e 99 ca 42
       101.22978 101.14476 101.120804 101.2993
000070 1e 1e ca 42 e6 38 ca 42 98 a6 50 3b 30 3d ca 42
       101.05882 101.11113 0.003183758 101.11951
000080 6f 91 ca 42 d9 5c a0 bd 92 ed c4 ba 07 7f ca 42
       101.28405 -0.07830209 -0.0015024415 101.2481
000090 b0 51 6d 3c 01 37 ca 42 55 5d ca 42 1b c7 ca 42
       0.014484808 101.10743 101.18229 101.38888
0000a0 7c 4b ca 42 3b 33 ca 42 d2 64 ca 42 50 91 ca 42
       101.14743 101.10006 101.196915 101.28381
0000b0 70 86 ea bd 00 9b ca 42 76 d7 03 be ca 53 ca 42
       -0.11451423 101.302734 -0.1287516 101.16365
0000c0 6f 62 ad 3d 44 62 ca 42 95 ec c8 bd 59 75 ca 42
       0.0846604 101.191925 -0.098107494 101.229195
0000d0 52 55 ca 42 57 4b ca 42 0e 71 ca 42 21 9f ca 42
       101.16664 101.14715 101.22081 101.3108
0000e0 4c 74 ca 42 08 78 ca 42 3d 3f ca 42 9d 43 ca 42
       101.22714 101.234436 101.12351 101.13206
0000f0 b0 24 aa 3c b0 32 ca 42 99 6a ca 42 d2 a7 2e 3c
       0.020769447 101.099 101.2082 0.010660129

fc3.weight f4 [81, 64]
000000 48 b0 9e bc 0a 50 b4 3d 66 1a 89 3d 6c a9 4b 3d
       -0.019371167 0.08804329 0.06694488 0.04972212
000010 58 aa 07 3d 90 55 6d bc 2e 23 db bd 26 1b bd 3d
       0.033121437 -0.014485732 -0.10700069 0.09233694
000020 84 2a f8 3d 50 16 eb 3c c0 1a 44 bb 30 d9 01 3c
       0.12117484 0.028697163 -0.002992317 0.007925317
000030 b4 a1 2c bd 68 c4 a2 3d 04 94 b1 3d 94 78 53 3d
       -0.0421464 0.07947618 0.0867081 0.051628664
000040 20 6b 6d bd 54 95 0d 3d f8 7a 38 bd 20 6d d1 3b
       -0.05796349 0.03456624 -0.045039147 0.0063911825
000050 06 5d 99 3d cc ef 48 3d 30 10 f0 3d 88 54 aa 3d
       0.07488446 0.049056813 0.117218375 0.08316904
000060 92 72 f9 3d 96 1f b1 3d 20 8a 64 3c b0 65 97 bc
       0.12180056 0.08648603 0.013948947 -0.018481106
000070 30 87 61 3d f0 4b 20 bc 6a 83 c6 3d b8 bb 0d bd
       0.055060565 -0.00978373 0.09693034 -0.03460285
000080 76 2b b1 bd 64 80 53 bd 30 50 09 bd 00 f2 34 bb
       -0.08650868 -0.051636115 -0.03352374 -0.0027610064
000090 94 38 a7 3d c0 06 61 3b 48 ca 9d bd 4e 6d 82 bd
       0.08165088 0.0034336299 -0.07704598 -0.063685045
0000a0 28 a5 f4 bc da db a9 3d 68 74 c1 bd c0 0c f7 bd
       -0.029863909 0.082938865 -0.09446031 -0.12062979
0000b0 9c c1 0e bd 4a e3 9a bd 10 2b 2b 3d 30 d4 90 3c
       -0.03485261 -0.07562883 0.041789114 0.017679304
0000c0 70 7d 02 3c 00 44 8f ba be ab d7 3d c8 d6 76 3d
       0.007964477 -0.00109303 0.10530804 0.060263425
0000d0 76 51 d8 3d 30 a2 03 3d 42 f8 99 bd 16 b5 9a 3d
       0.105624124 0.032137096 -0.075180545 0.07554071
0000e0 4c 12 9a bd 28 0c fa bc 54 c9 85 3d 0a 38 bd bd
       -0.07523021 -0.030523375 0.06532541 -0.09239204
0000f0 da b6 9d bd 84 f5 04 3d c8 08 9c 3d 68 8a ad 3d
       -0.07700892 0.032460704 0.076188624 0.084736645
000100 c6 ec 25 42 39 a6 26 42 82 dd 25 42 82 df 25 42
       41.481224 41.662327 41.466316 41.46827
000110 5c 04 26 42 ec 3d 2f 3d 15 9e 26 42 4c 69 8e 3d
       41.504257 0.042783663 41.654377 0.069536775
000120 98 8d 26 42 32 24 26 42 e2 03 92 3d 9a ac 25 42
       41.638275 41.535347 0.07129647 41.418556
000130 28 1c 26 42 ee 7e c9 bd 9e ba 25 42 50 19 7b bc
       41.527496 -0.09838663 41.432243 -0.015325859
000140 8e 9a 26 42 0a c0 d2 3d 0b 73 26 42 12 86 26 42
       41.650932 0.10290535 41.612347 41.630928
000150 7a 4e 26 42 b7 20 26 42 4a e2 25 42 bd 01 4f 3c
       41.576637 41.531948 41.470985 0.012634692
000160 16 93 26 42 2f 1e 26 42 88 82 26 42 7c 35 26 42
       41.64364 41.529476 41.627472 41.55223
000170 8c 57 26 42 3e 79 26 42 32 25 c6 bd 68 7d 26 42
       41.585495 41.6184 -0.09675063 41.622467
000180 9a 74 26 42 7e 69 13 bd 01 59 fa bd ca d6 25 42
       41.61387 -0.035989277 -0.122240074 41.459755
000190 1e 56 a0 bd 20 77 26 42 20 6f 26 42 a2 45 26 42
       -0.078289255 41.616333 41.60852 41.568
0001a0 94 f6 25 42 27 a0 26 42 66 91 26 42 42 1c 26 42
       41.4908 41.6564 41.64199 41.527596
0001b0 14 9c fc 3d 04 7f 26 42 0f 98 25 bd 81 e2 25 42
       0.12334457 41.62404 -0.040428218 41.471195
0001c0 74 bc 9e bd 29 f8 25 42 48 8e 97 3c 3c ea 25 42
       -0.07750788 41.492344 0.018500462 41.478745
0001d0 cb 6b 26 42 b2 94 26 42 bf 8b 26 42 fb 4d 26 42
       41.605267 41.64521 41.63647 41.576153
0001e0 18 8b 26 42 77 de 25 42 90 4c 26 42 fd 92 26 42
       41.635834 41.46725 41.574768 41.643543
0001f0 40 5f 22 3b 00 18 26 42 00 f1 25 42 84 90 8c bd
       0.0024776012 41.523438 41.48535 -0.06863502
000200 8a cc 87 bd e4 8d 7e bd bc 1e 85 3d 34 d8 22 bd
       -0.066308096 -0.062147036 0.06500003 -0.03975697
000210 24 6a fc 3d b0 36 dd bd 64 96 02 3d 40 e9 3f 3d
       0.12324932 -0.108014464 0.031881705 0.046853304
000220 70 b8 82 bd b0 ae c5 bc b0 0f c1 3d 48 14 4a bd
       -0.06382835 -0.024131149 0.0942682 -0.049335748
000230 ac 22 10 bd f0 45 8b bd 00 1f 41 3b 24 7c 6a bd
       -0.035189316 -0.06800449 0.002946794 -0.057247296
000240 fc 6a c3 bd 58 59 53 3d 64 c4 00 bd 00 0b 0c 3d
       -0.0954189 0.051598877 -0.031437293 0.034190178
000250 b0 77 92 bd 80 54 23 bb 9c 03 ce bd ac 40 5e 3d
       -0.07151735 -0.0024922192 -0.10059282 0.054260895
000260 f0 09 11 3c 8e 3a 82 bd da 46 eb 3d 86 ae eb bd
       0.008852467 -0.06358825 0.11488123 -0.11507897
000270 e4 6d 49 3d 2a 17 b3 bd 82 3f 8c 3d 7c 4e 89 bd
       0.049177065 -0.087446526 0.06848051 -0.06704423
000280 30 fd 6b 3c 02 1e fd bd f0 5a d3 bd 5c 0b 4a 3d
       0.014403626 -0.12359239 -0.10320079 0.04932724
000290 5a 1e df bd 00 a7 0d bd 84 34 a8 3d e4 ff 9d bd
       -0.10894461 -0.03458309 0.082131416 -0.07714823
0002a0 08 21 83 bd e6 f5 d3 bd 22 64 f7 3d 20 94 6d 3c
       -0.064027846 -0.10349636 0.12079646 0.014500648
0002b0 90 1b d8 bc 0c dc 21 3d 02 a9 f4 3d a2 2d 88 3d
       -0.02638033 0.039516494 0.11946298 0.06649329
0002c0 d8 ec 3b 3d 00 66 79 bb 02 53 cc 3d 10 92 df 3c
       0.04588017 -0.0038055182 0.0997677 0.027291328
0002d0 60 cf ed bd 8c 76 9e 3d d2 ae 88 bd e8 ee af bd
       -0.11611819 0.07737455 -0.06673969 -0.085904896
0002e0 d4 c1 ab bd 76 c7 e4 3d e6 05 f8 bd 80 45 93 3a
       -0.08386579 0.11170857 -0.121105 0.0011235923
0002f0 9c 09 68 3d c0 e2 6b 3b 40 de 0b 3d d8 25 f1 bc
       0.05664979 0.0035993308 0.0341475 -0.02943699
000300 8d 86 20 42 fa fa 1f 42 4d 81 20 42 d0 73 20 42
       40.131397 39.995094 40.12627 40.1131
000310 fb a8 1f 42 70 78 74 3d 51 7d 20 42 00 30 84 ba
       39.91502 0.05968517 40.12238 -0.0010085106
000320 07 77 20 42 5d d1 1f 42 00 2a cb 3a fa 3d 20 42
       40.116238 39.954456 0.0015500188 40.060524
000330 5b 84 20 42 8c 23 a6 bd c4 22 20 42 c0 d6 d4 bb
       40.129253 -0.08112249 40.03395 -0.0064953268
000340 cb 0e 20 42 b8 77 ab bc 51 ff 1f 42 81 39 20 42
       40.014446 -0.02093111 39.999332 40.056156
000350 3e 68 20 42 83 a9 1f 42 4b ee 1f 42 64 95 d7 bd
       40.1018 39.91554 39.982708 -0.10526541
000360 c8 41 20 42 d6 f4 1f 42 12 63 20 42 57 b5 1f 42
       40.06424 39.989098 40.09675 39.92709
000370 8c 7d 20 42 2f 1c 20 42 a8 90 eb 3c 25 df 1f 42
       40.122604 40.027523 0.0287555 39.967915
000380 13 44 20 42 68 58 6f 3d 0f 62 94 3d 11 fd 1f 42
       40.06648 0.05843392 0.07245266 39.997135
000390 00 a5 46 bb 68 f6 1f 42 3b 16 20 42 9d 38 20 42
       -0.003031075 39.99063 40.02171 40.055286
0003a0 b3 58 20 42 ea 1c 20 42 a0 3e 20 42 8c 2c 20 42
       40.08662 40.028236 40.061157 40.043503
0003b0 7e d9 79 bc 79 7d 20 42 21 c3 c1 bd 6d 91 20 42
       -0.015249608 40.12253 -0.09461046 40.142017
0003c0 c6 2e 2f bd e7 6b 20 42 c0 19 76 bc 8d df 1f 42
       -0.042769216 40.105373 -0.015020788 39.96831
0003d0 ca 59 20 42 86 de 1f 42 96 c9 1f 42 81 58 20 42
       40.087685 39.967308 39.94686 40.08643
0003e0 f9 0e 20 42 02 b7 1f 42 52 66 20 42 00 20 20 42
       40.01462 39.92872 40.099922 40.03125
0003f0 28 d6 c8 3c 34 99 1f 42 35 3d 20 42 58 ed 9c bd
       0.02451618 39.899612 40.059772 -0.07662457

fc3.bias f4 [81]
000000 32 22 b7 3d c6 ad 1b 42 50 1f a7 bd e0 f5 09 42
       0.08942069 38.9197 -0.08160269 34.490112
000010 a4 35 b0 41 6e 02 ba bd e8 ba f1 3d d4 7c 04 bd
       22.026192 -0.09082495 0.11803228 -0.032345608
000020 26 ca 9f 3d d8 23 0b 42 12 f3 9a bd 1b 0c 04 42
       0.07802229 34.785004 -0.07565893 33.01182
000030 c0 6e e3 41 35 54 be 41 c7 d1 ef 41 40 31 10 3b
       28.429077 23.791117 29.97743 0.0022002012
000040 ee 76 e3 3d a8 1d 6c 3d 68 76 a6 3c f7 81 15 42
       0.111066684 0.05764547 0.020320132 37.37692
000050 40 bb fc 3b d2 52 f3 bd c0 ca a7 41 87 cb 15 42
       0.0077127516 -0.11881031 20.973999 37.448757
000060 96 ec fc bd b8 9d e7 bc c4 77 01 bd e3 da 12 42
       -0.12349813 -0.028273448 -0.031608358 36.713757
000070 11 69 b0 41 28 e8 08 3d e8 03 19 3d 16 4f c0 41
       22.051302 0.033424526 0.03735724 24.038616
000080 7c c0 1d 3d 50 eb 11 42 36 2e d6 41 4c 1c 8c 3d
       0.038513646 36.479797 26.772564 0.06841335
000090 5a fa da 41 12 8d 1b 42 88 72 cb 41 c4 40 bc 41
       27.372242 38.887764 25.430923 23.531624
0000a0 ba cc fb 3d 22 87 ff 41 ed f1 07 42 48 3d 0d 42
       0.12294908 31.940983 33.986256 35.309845
0000b0 12 26 d2 41 cc 45 cb 3d a7 57 ff 41 d7 c9 fb 41
       26.268589 0.09925422 31.917799 31.473555
0000c0 24 1c d9 bd ae 96 c1 41 88 3b c3 bc 2a 44 9f bd
       -0.106010705 24.198574 -0.023832098 -0.07776673
0000d0 06 66 01 42 aa 49 10 42 ac d4 da 3d 90 77 e0 bd
       32.349632 36.071938 0.10685095 -0.10960305
0000e0 12 8c f9 3d ab 4f 07 42 e4 2e bf 41 82 7e 9b 3d
       0.121849194 33.8278 23.897896 0.07592489
0000f0 e4 12 0d bd 28 c7 04 42 b8 84 e6 bc 54 ad a8 3d
       -0.034441844 33.19449 -0.028139457 0.08236185
000100 3c 9e 32 3d 14 fe 82 bd 52 3e ef 41 a0 ee c9 41
       0.043607935 -0.06396118 29.90543 25.241516
000110 ed 6b 0b 42 b6 c4 0e 42 54 3b 52 bd b3 79 11 42
       34.855396 35.6921 -0.05132611 36.368847
000120 48 c4 31 bd 38 c2 bb bd 4c e1 81 bd 08 78 ec bc
       -0.04340008 -0.09167904 -0.063418 -0.02886583
000130 28 8c c6 41 34 41 0f 42 b2 f6 f2 bd 60 72 0a 42
       24.818436 35.813675 -0.1186346 34.611694
000140 94 b0 ad bd
       -0.08480945
